Model: "model_1"
_________________________________________________________________
Layer (type)                 Output Shape              Param #   
=================================================================
input_1 (InputLayer)         (None, 128, 256, 1)       0         
_________________________________________________________________
encoder (Model)              (None, 8, 16, 512)        11179840  
_________________________________________________________________
input_2 (InputLayer)         (None, 8, 16, 512)        0         
_________________________________________________________________
conv2d_21 (Conv2D)           (None, 8, 16, 4)          2048      
_________________________________________________________________
activation_18 (Activation)   (None, 8, 16, 4)          0         
_________________________________________________________________
flatten_1 (Flatten)          (None, 512)               0         
=================================================================
Total params: 11,181,888
Trainable params: 11,172,288
Non-trainable params: 9,600
_________________________________________________________________
(81, 128, 256, 1)
[[[[0.        ]
   [0.        ]
   [0.        ]
   ...
   [0.        ]
   [0.        ]
   [0.        ]]

  [[0.        ]
   [0.        ]
   [0.        ]
   ...
…
